…
kyReLU()(x)\nx = layers.Dropout(rate=0.5)(x)\nx = layers.Dense(NUM_CLASSES)(x)\n\n# Output\noutput_layer = layers.Activation(\"softmax\")(x)\nmodel = models.Model(input_layer, output_layer)\n\n\n\nmodel.summary()\n\nModel: \"model_2\"\n_________________________________________________________________\n Layer (type)                Output Shape              Param #   \n=================================================================\n input_4 (InputLayer)        [(None, 32, 32, 3)]       0         \n                                                                 \n conv2d_4 (Conv2D)           (None, 32, 32, 32)        896       \n                                                                 \n batch_normalization_5 (Bat  (None, 32, 32, 32)        128       \n chNormalization)                                                \n                                                                 \n leaky_re_lu_5 (LeakyReLU)   (None, 32, 32, 32)        0         \n                                                                 \n conv2d_5 (Conv2D)           (None, 16, 16, 32)        9248      \n                                                                 \n batch_normalization_6 (Bat  (None, 16, 16, 32)        128       \n chNormalization)                                                \n                                                                 \n leaky_re_lu_6 (LeakyReLU)   (None, 16, 16, 32)        0         \n                                                                 \n conv2d_6 (Conv2D)           (None, 16, 16, 64)        18496     \n                                                                 \n batch_normalization_7 (Bat  (None, 16, 16, 64)        256       \n chNormalization)                                                \n                                                                 \n leaky_re_lu_7 (LeakyReLU)   (None, 16, 16, 64)        0         \n                                                                 \n conv2d_7 (Conv2D)           (None, 8, 8, 64)          36928     \n                                                                 \n batch_normalization_8 (Bat  (None, 8, 8, 64)          256       \n chNormalization)                                                \n                                                                 \n leaky_re_lu_8 (LeakyReLU)   (None, 8, 8, 64)          0         \n                                                                 \n flatten_2 (Flatten)         (None, 4096)              0         \n                                                                 \n dense_5 (Dense)             (None, 128)               524416    \n                                                                 \n batch_normalization_9 (Bat  (None, 128)               512       \n chNormalization)                                                \n                                                                 \n leaky_re_lu_9 (LeakyReLU)   (None, 128)               0         \n                                                                 \n dropout_1 (Dropout)         (None, 128)               0         \n                                                                 \n dense_6 (Dense)             (None, 10)                1290      \n                                                                 \n activation_1 (Activation)   (None, 10)                0         \n                                                                 \n=================================================================\nTotal params: 592554 (2.26 MB)\nTrainable params: 591914 (2.26 MB)\nNon-trainable params: 640 (2.50 KB)\n_________________________________________________________________\n\n\n\n\n\nThis is identical to the previous MLP model\n\n\nCode\n# WARNING:absl:At 
…
