…
he decoder later\n\n# Output\nx = layers.Flatten()(x)\nencoder_output = layers.Dense(EMBEDDING_DIM, name=\"encoder_output\")(x)\n\n# Model\nencoder = models.Model(encoder_input, encoder_output)\nencoder.summary()\n\n\nModel: \"model\"\n_________________________________________________________________\n Layer (type)                Output Shape              Param #   \n=================================================================\n encoder_input (InputLayer)  [(None, 32, 32, 1)]       0         \n                                                                 \n conv2d (Conv2D)             (None, 16, 16, 32)        320       \n                                                                 \n conv2d_1 (Conv2D)           (None, 8, 8, 64)          18496     \n                                                                 \n conv2d_2 (Conv2D)           (None, 4, 4, 128)         73856     \n                                                                 \n flatten (Flatten)           (None, 2048)              0         \n                                                                 \n encoder_output (Dense)      (None, 2)                 4098      \n                                                                 \n=================================================================\nTotal params: 96770 (378.01 KB)\nTrainable params: 96770 (378.01 KB)\nNon-trainable params: 0 (0.00 Byte)\n_________________________________________________________________\n\n\n\n\n\nThe decoder reconstructs the original image from the embedding.\n\n\nIn a 
…
 CHANNELS,\n    (3, 3),\n    strides=1,\n    activation='sigmoid',\n    padding=\"same\",\n    name=\"decoder_output\",\n)(x)\n\n# Model\ndecoder = models.Model(decoder_input, decoder_output)\ndecoder.summary()\n\n\nModel: \"model_1\"\n_________________________________________________________________\n Layer (type)                Output Shape              Param #   \n=================================================================\n decoder_input (InputLayer)  [(None, 2)]               0         \n                                                                 \n dense (Dense)               (None, 2048)              6144      \n                                                                 \n reshape (Reshape)           (None, 4, 4, 128)         0         \n                                                                 \n conv2d_transpose (Conv2DTr  (None, 8, 8, 128)         147584    \n anspose)                                                        \n                                                                 \n conv2d_transpose_1 (Conv2D  (None, 16, 16, 64)        73792     \n Transpose)                                                      \n                                                                 \n conv2d_transpose_2 (Conv2D  (None, 32, 32, 32)        18464     \n Transpose)                                                      \n                                                                 \n decoder_output (Conv2D)     (None, 32, 32, 1)         289       \n                                                                 \n=================================================================\nTotal params: 246273 (962.00 KB)\nTrainable params: 246273 (962.00 KB)\nNon-trainable params: 0 (0.00 Byte)\n_________________________________________________________________\n\n\n\n\n\n\nCombine the encoder and decoder into a single model.\n\n\nCode\nautoencoder = models.Model(encoder_input, decoder(encoder_output))\nautoencoder.summary()\n\n\nModel: \"model_2\"\n_________________________________________________________________\n Layer (type)                Output Shape              Param #   \n=================================================================\n encoder_input (InputLayer)  [(None, 32, 32, 1)]       0         \n                                                                 \n conv2d (Conv2D)             (None, 16, 16, 32)        320       \n                                                                 \n conv2d_1 (Conv2D)           (None, 8, 8, 64)          18496     \n                                                                 \n conv2d_2 (Conv2D)           (None, 4, 4, 128)         73856     \n                                                                 \n flatten (Flatten)           (None, 2048)              0         \n                                                                 \n encoder_output (Dense)      (None, 2)                 4098      \n                                                                 \n model_1 (Functional)        (None, 32, 32, 1)         246273    \n                                                                 \n=================================================================\nTotal params: 343043 (1.31 MB)\nTrainable params: 343043 (1.31 MB)\nNon-trainable params: 0 (0.00 Byte)\n_________________________________________________________________\n\n\n\n\n\nThe autoencoder is trained with the source images as both input and target out
…
var, z], name=\"encoder\")\nencoder.summary()\n\n\nModel: \"encoder\"\n__________________________________________________________________________________________________\n Layer (type)                Output Shape                 Param #   Connected to                  \n==================================================================================================\n encoder_input (InputLayer)  [(None, 32, 32, 1)]          0         []                            \n                                                                                                  \n conv2d_3 (Conv2D)           (None, 16, 16, 32)           320       ['encoder_input[0][0]']       \n                                                                                                  \n conv2d_4 (Conv2D)           (None, 8, 8, 64)             18496     ['conv2d_3[0][0]']            \n                                                                                                  \n conv2d_5 (Conv2D)           (None, 4, 4, 128)            73856     ['conv2d_4[0][0]']            \n                                                                                                  \n flatten_1 (Flatten)         (None, 2048)                 0         ['conv2d_5[0][0]']            \n                                                                                                  \n z_mean (Dense)              (None, 2)                    4098      ['flatten_1[0][0]']           \n                                                                                                  \n z_log_var (Dense)           (None, 2)                    4098      ['flatten_1[0][0]']           \n                                                                                                  \n sampling (Sampling)         (None, 2)                    0         ['z_mean[0][0]',              \n                                                                     'z_log_var[0][0]']           \n                                                                                                  \n==================================================================================================\nTotal params: 100868 (394.02 KB)\nTrainable params: 100868 
…
me\")(x)\n\ndecoder_output = layers.Conv2D(1, (3, 3), strides=1, activation=\"sigmoid\", padding=\"same\", name=\"decoder_output\")(x)\n\ndecoder = models.Model(decoder_input, decoder_output)\ndecoder.summary()\n\n\nModel: \"model_3\"\n_________________________________________________________________\n Layer (type)                Output Shape              Param #   \n=================================================================\n decoder_input (InputLayer)  [(None, 2)]               0         \n                                                                 \n dense_1 (Dense)             (None, 2048)              6144      \n                                                                 \n reshape_1 (Reshape)         (None, 4, 4, 128)         0         \n                                                                 \n conv2d_transpose_3 (Conv2D  (None, 8, 8, 128)         147584    \n Transpose)                                                      \n                                                                 \n conv2d_transpose_4 (Conv2D  (None, 16, 16, 64)        73792     \n Transpose)                                                      \n                                                                 \n conv2d_transpose_5 (Conv2D  (None, 32, 32, 32)        18464     \n Transpose)                                                      \n                                                                 \n decoder_output (Conv2D)     (None, 32, 32, 1)         289       \n                                                                 \n=================================================================\nTotal params: 246273 (962.00 KB)\nTrainable params: 246273 (962.00 KB)\nNon-trainable params: 0 (0.00 Byte)\n_________________________________________________________________\n\n\n\n\n\nPutting the encoder and decoder together.\n\n\nCode\nEPOCHS = 5\nBETA =
…
\ndiscriminator_output = layers.Flatten()(x)  # The shape is already 1x1 so no need for a Dense layer after this\n\ndiscriminator = models.Model(discriminator_input, discriminator_output)\ndiscriminator.summary()\n\nModel: \"model_1\"\n_________________________________________________________________\n Layer (type)                Output Shape              Param #   \n=================================================================\n input_2 (InputLayer)        [(None, 64, 64, 1)]       0         \n                                                                 \n conv2d_5 (Conv2D)           (None, 32, 32, 64)        1024      \n                                                                 \n leaky_re_lu_4 (LeakyReLU)   (None, 32, 32, 64)        0         \n                                                                 \n dropout_4 (Dropout)         (None, 32, 32, 64)        0         \n                                                                 \n conv2d_6 (Conv2D)           (None, 16, 16, 128)       131072    \n                                                                 \n batch_normalization_3 (Bat  (None, 16, 16, 128)       512       \n chNormalization)                                                \n                                                                 \n leaky_re_lu_5 (LeakyReLU)   (None, 16, 16, 128)       0         \n                                                                 \n dropout_5 (Dropout)         (None, 16, 16, 128)       0         \n                                                                 \n conv2d_7 (Conv2D)           (None, 8, 8, 256)         524288    \n                                                                 \n batch_normalization_4 (Bat  (None, 8, 8, 256)         1024      \n chNormalization)                                                \n                                                                 \n leaky_re_lu_6 (LeakyReLU)   (None, 8, 8, 256)         0         \n                                                                 \n dropout_6 (Dropout)         (None, 8, 8, 256)         0         \n                                                                 \n conv2d_8 (Conv2D)           (None, 4, 4, 512)         2097152   \n                                                                 \n batch_normalization_5 (Bat  (None, 4, 4, 512)         2048      \n chNormalization)                                                \n                                                                 \n leaky_re_lu_7 (LeakyReLU)   (None, 4, 4, 512)         0         \n                                                                 \n dropout_7 (Dropout)         (None, 4, 4, 512)         0         \n                                                                 \n conv2d_9 (Conv2D)           (None, 1, 1, 1)           8192      \n                                                                 \n flatten_1 (Flatten)         (None, 1)                 0         \n                                                                 \n=================================================================\nTotal params: 2765312 (10.55 MB)\nTrainable params: 2763520 (10.54 MB)\nNon-trainable params: 1792 (7.00 KB)\n_________________________________________________________________\n\n\n\n\n\nThe purpose of the generator is to turn random noise into convincing
…
(\n    CHANNELS,\n    kernel_size=4,\n    strides=2,\n    padding=\"same\",\n    use_bias=False,\n    activation=\"tanh\",\n)(x)\n\ngenerator = models.Model(generator_input, generator_output)\ngenerator.summary()\n\nModel: \"model_2\"\n_________________________________________________________________\n Layer (type)                Output Shape              Param #   \n=================================================================\n input_3 (InputLayer)        [(None, 100)]             0         \n                                                                 \n reshape (Reshape)           (None, 1, 1, 100)         0         \n                                                                 \n conv2d_transpose (Conv2DTr  (None, 4, 4, 512)         819200    \n anspose)                                                        \n                                                                 \n batch_normalization_6 (Bat  (None, 4, 4, 512)         2048      \n chNormalization)                                                \n                                                                 \n leaky_re_lu_8 (LeakyReLU)   (None, 4, 4, 512)         0         \n                                                                 \n conv2d_transpose_1 (Conv2D  (None, 8, 8, 256)         2097152   \n Transpose)                                                      \n                                                                 \n batch_normalization_7 (Bat  (None, 8, 8, 256)         1024      \n chNormalization)                                                \n                                                                 \n leaky_re_lu_9 (LeakyReLU)   (None, 8, 8, 256)         0         \n                                                                 \n conv2d_transpose_2 (Conv2D  (None, 16, 16, 128)       524288    \n Transpose)                                                      \n                                                                 \n batch_normalization_8 (Bat  (None, 16, 16, 128)       512       \n chNormalization)                                                \n                                                                 \n leaky_re_lu_10 (LeakyReLU)  (None, 16, 16, 128)       0         \n                                                                 \n conv2d_transpose_3 (Conv2D  (None, 32, 32, 64)        131072    \n Transpose)                                                      \n                                                                 \n batch_normalization_9 (Bat  (None, 32, 32, 64)        256       \n chNormalization)                                                \n                                                                 \n leaky_re_lu_11 (LeakyReLU)  (None, 32, 32, 64)        0         \n                                                                 \n conv2d_transpose_4 (Conv2D  (None, 64, 64, 1)         1024      \n Transpose)                                                      \n                                                                 \n=================================================================\nTotal params: 3576576 (13.64 MB)\nTrainable params: 3574656 (13.64 MB)\nNon-trainable params: 1920 (7.50 KB)\n_________________________________________________________________\n\n\n\n\n\n\nWe
…
kyReLU()(x)\nx = layers.Dropout(rate=0.5)(x)\nx = layers.Dense(NUM_CLASSES)(x)\n\n# Output\noutput_layer = layers.Activation(\"softmax\")(x)\nmodel = models.Model(input_layer, output_layer)\n\n\n\nmodel.summary()\n\nModel: \"model_2\"\n_________________________________________________________________\n Layer (type)                Output Shape              Param #   \n=================================================================\n input_4 (InputLayer)        [(None, 32, 32, 3)]       0         \n                                                                 \n conv2d_4 (Conv2D)           (None, 32, 32, 32)        896       \n                                                                 \n batch_normalization_5 (Bat  (None, 32, 32, 32)        128       \n chNormalization)                                                \n                                                                 \n leaky_re_lu_5 (LeakyReLU)   (None, 32, 32, 32)        0         \n                                                                 \n conv2d_5 (Conv2D)           (None, 16, 16, 32)        9248      \n                                                                 \n batch_normalization_6 (Bat  (None, 16, 16, 32)        128       \n chNormalization)                                                \n                                                                 \n leaky_re_lu_6 (LeakyReLU)   (None, 16, 16, 32)        0         \n                                                                 \n conv2d_6 (Conv2D)           (None, 16, 16, 64)        18496     \n                                                                 \n batch_normalization_7 (Bat  (None, 16, 16, 64)        256       \n chNormalization)                                                \n                                                                 \n leaky_re_lu_7 (LeakyReLU)   (None, 16, 16, 64)        0         \n                                                                 \n conv2d_7 (Conv2D)           (None, 8, 8, 64)          36928     \n                                                                 \n batch_normalization_8 (Bat  (None, 8, 8, 64)          256       \n chNormalization)                                                \n                                                                 \n leaky_re_lu_8 (LeakyReLU)   (None, 8, 8, 64)          0         \n                                                                 \n flatten_2 (Flatten)         (None, 4096)              0         \n                                                                 \n dense_5 (Dense)             (None, 128)               524416    \n                                                                 \n batch_normalization_9 (Bat  (None, 128)               512       \n chNormalization)                                                \n                                                                 \n leaky_re_lu_9 (LeakyReLU)   (None, 128)               0         \n                                                                 \n dropout_1 (Dropout)         (None, 128)               0         \n                                                                 \n dense_6 (Dense)             (None, 10)                1290      \n                                                                 \n activation_1 (Activation)   (None, 10)                0         \n                                                                 \n=================================================================\nTotal params: 592554 (2.26 MB)\nTrainable params: 591914 (2.26 MB)\nNon-trainable params: 640 (2.50 KB)\n_________________________________________________________________\n\n\n\n\n\nThis is identical to the previous MLP model\n\n\nCode\n# WARNING:absl:At 
…
